{"format": "torch", "nodes": [{"name": "transformer", "id": 2372093125128, "class_name": "GPTNeoModel(\n  (wte): Embedding(50258, 768)\n  (wpe): Embedding(2048, 768)\n  (drop): Dropout(p=0, inplace=False)\n  (h): ModuleList(\n    (0): GPTNeoBlock(\n      (ln_1): LayerNorm((768,), eps=1e-05, elementwise_affine=True)\n      (attn): GPTNeoAttention(\n        (attention): GPTNeoSelfAttention(\n          (attn_dropout): Dropout(p=0, inplace=False)\n          (resid_dropout): Dropout(p=0, inplace=False)\n          (k_proj): Linear(in_features=768, out_features=768, bias=False)\n          (v_proj): Linear(in_features=768, out_features=768, bias=False)\n          (q_proj): Linear(in_features=768, out_features=768, bias=False)\n          (out_proj): Linear(in_features=768, out_features=768, bias=True)\n        )\n      )\n      (ln_2): LayerNorm((768,), eps=1e-05, elementwise_affine=True)\n      (mlp): GPTNeoMLP(\n        (c_fc): Linear(in_features=768, out_features=3072, bias=True)\n        (c_proj): Linear(in_features=3072, out_features=768, bias=True)\n        (dropout): Dropout(p=0, inplace=False)\n      )\n    )\n    (1): GPTNeoBlock(\n      (ln_1): LayerNorm((768,), eps=1e-05, elementwise_affine=True)\n      (attn): GPTNeoAttention(\n        (attention): GPTNeoLocalSelfAttention(\n          (attn_dropout): Dropout(p=0, inplace=False)\n          (resid_dropout): Dropout(p=0, inplace=False)\n          (k_proj): Linear(in_features=768, out_features=768, bias=False)\n          (v_proj): Linear(in_features=768, out_features=768, bias=False)\n          (q_proj): Linear(in_features=768, out_features=768, bias=False)\n          (out_proj): Linear(in_features=768, out_features=768, bias=True)\n        )\n      )\n      (ln_2): LayerNorm((768,), eps=1e-05, elementwise_affine=True)\n      (mlp): GPTNeoMLP(\n        (c_fc): Linear(in_features=768, out_features=3072, bias=True)\n        (c_proj): Linear(in_features=3072, out_features=768, bias=True)\n        (dropout): Dropout(p=0, inplace=False)\n      )\n    )\n    (2): GPTNeoBlock(\n      (ln_1): LayerNorm((768,), eps=1e-05, elementwise_affine=True)\n      (attn): GPTNeoAttention(\n        (attention): GPTNeoSelfAttention(\n          (attn_dropout): Dropout(p=0, inplace=False)\n          (resid_dropout): Dropout(p=0, inplace=False)\n          (k_proj): Linear(in_features=768, out_features=768, bias=False)\n          (v_proj): Linear(in_features=768, out_features=768, bias=False)\n          (q_proj): Linear(in_features=768, out_features=768, bias=False)\n          (out_proj): Linear(in_features=768, out_features=768, bias=True)\n        )\n      )\n      (ln_2): LayerNorm((768,), eps=1e-05, elementwise_affine=True)\n      (mlp): GPTNeoMLP(\n        (c_fc): Linear(in_features=768, out_features=3072, bias=True)\n        (c_proj): Linear(in_features=3072, out_features=768, bias=True)\n        (dropout): Dropout(p=0, inplace=False)\n      )\n    )\n    (3): GPTNeoBlock(\n      (ln_1): LayerNorm((768,), eps=1e-05, elementwise_affine=True)\n      (attn): GPTNeoAttention(\n        (attention): GPTNeoLocalSelfAttention(\n          (attn_dropout): Dropout(p=0, inplace=False)\n          (resid_dropout): Dropout(p=0, inplace=False)\n          (k_proj): Linear(in_features=768, out_features=768, bias=False)\n          (v_proj): Linear(in_features=768, out_features=768, bias=False)\n          (q_proj): Linear(in_features=768, out_features=768, bias=False)\n          (out_proj): Linear(in_features=768, out_features=768, bias=True)\n        )\n      )\n      (ln_2): LayerNorm((768,), eps=1e-05, elementwise_affine=True)\n      (mlp): GPTNeoMLP(\n        (c_fc): Linear(in_features=768, out_features=3072, bias=True)\n        (c_proj): Linear(in_features=3072, out_features=768, bias=True)\n        (dropout): Dropout(p=0, inplace=False)\n      )\n    )\n    (4): GPTNeoBlock(\n      (ln_1): LayerNorm((768,), eps=1e-05, elementwise_affine=True)\n      (attn): GPTNeoAttention(\n        (attention): GPTNeoSelfAttention(\n          (attn_dropout): Dropout(p=0, inplace=False)\n          (resid_dropout): Dropout(p=0, inplace=False)\n          (k_proj): Linear(in_features=768, out_features=768, bias=False)\n          (v_proj): Linear(in_features=768, out_features=768, bias=False)\n          (q_proj): Linear(in_features=768, out_features=768, bias=False)\n          (out_proj): Linear(in_features=768, out_features=768, bias=True)\n        )\n      )\n      (ln_2): LayerNorm((768,), eps=1e-05, elementwise_affine=True)\n      (mlp): GPTNeoMLP(\n        (c_fc): Linear(in_features=768, out_features=3072, bias=True)\n        (c_proj): Linear(in_features=3072, out_features=768, bias=True)\n        (dropout): Dropout(p=0, inplace=False)\n      )\n    )\n    (5): GPTNeoBlock(\n      (ln_1): LayerNorm((768,), eps=1e-05, elementwise_affine=True)\n      (attn): GPTNeoAttention(\n        (attention): GPTNeoLocalSelfAttention(\n          (attn_dropout): Dropout(p=0, inplace=False)\n          (resid_dropout): Dropout(p=0, inplace=False)\n          (k_proj): Linear(in_features=768, out_features=768, bias=False)\n          (v_proj): Linear(in_features=768, out_features=768, bias=False)\n          (q_proj): Linear(in_features=768, out_features=768, bias=False)\n          (out_proj): Linear(in_features=768, out_features=768, bias=True)\n        )\n      )\n      (ln_2): LayerNorm((768,), eps=1e-05, elementwise_affine=True)\n      (mlp): GPTNeoMLP(\n        (c_fc): Linear(in_features=768, out_features=3072, bias=True)\n        (c_proj): Linear(in_features=3072, out_features=768, bias=True)\n        (dropout): Dropout(p=0, inplace=False)\n      )\n    )\n    (6): GPTNeoBlock(\n      (ln_1): LayerNorm((768,), eps=1e-05, elementwise_affine=True)\n      (attn): GPTNeoAttention(\n        (attention): GPTNeoSelfAttention(\n          (attn_dropout): Dropout(p=0, inplace=False)\n          (resid_dropout): Dropout(p=0, inplace=False)\n          (k_proj): Linear(in_features=768, out_features=768, bias=False)\n          (v_proj): Linear(in_features=768, out_features=768, bias=False)\n          (q_proj): Linear(in_features=768, out_features=768, bias=False)\n          (out_proj): Linear(in_features=768, out_features=768, bias=True)\n        )\n      )\n      (ln_2): LayerNorm((768,), eps=1e-05, elementwise_affine=True)\n      (mlp): GPTNeoMLP(\n        (c_fc): Linear(in_features=768, out_features=3072, bias=True)\n        (c_proj): Linear(in_features=3072, out_features=768, bias=True)\n        (dropout): Dropout(p=0, inplace=False)\n      )\n    )\n    (7): GPTNeoBlock(\n      (ln_1): LayerNorm((768,), eps=1e-05, elementwise_affine=True)\n      (attn): GPTNeoAttention(\n        (attention): GPTNeoLocalSelfAttention(\n          (attn_dropout): Dropout(p=0, inplace=False)\n          (resid_dropout): Dropout(p=0, inplace=False)\n          (k_proj): Linear(in_features=768, out_features=768, bias=False)\n          (v_proj): Linear(in_features=768, out_features=768, bias=False)\n          (q_proj): Linear(in_features=768, out_features=768, bias=False)\n          (out_proj): Linear(in_features=768, out_features=768, bias=True)\n        )\n      )\n      (ln_2): LayerNorm((768,), eps=1e-05, elementwise_affine=True)\n      (mlp): GPTNeoMLP(\n        (c_fc): Linear(in_features=768, out_features=3072, bias=True)\n        (c_proj): Linear(in_features=3072, out_features=768, bias=True)\n        (dropout): Dropout(p=0, inplace=False)\n      )\n    )\n    (8): GPTNeoBlock(\n      (ln_1): LayerNorm((768,), eps=1e-05, elementwise_affine=True)\n      (attn): GPTNeoAttention(\n        (attention): GPTNeoSelfAttention(\n          (attn_dropout): Dropout(p=0, inplace=False)\n          (resid_dropout): Dropout(p=0, inplace=False)\n          (k_proj): Linear(in_features=768, out_features=768, bias=False)\n          (v_proj): Linear(in_features=768, out_features=768, bias=False)\n          (q_proj): Linear(in_features=768, out_features=768, bias=False)\n          (out_proj): Linear(in_features=768, out_features=768, bias=True)\n        )\n      )\n      (ln_2): LayerNorm((768,), eps=1e-05, elementwise_affine=True)\n      (mlp): GPTNeoMLP(\n        (c_fc): Linear(in_features=768, out_features=3072, bias=True)\n        (c_proj): Linear(in_features=3072, out_features=768, bias=True)\n        (dropout): Dropout(p=0, inplace=False)\n      )\n    )\n    (9): GPTNeoBlock(\n      (ln_1): LayerNorm((768,), eps=1e-05, elementwise_affine=True)\n      (attn): GPTNeoAttention(\n        (attention): GPTNeoLocalSelfAttention(\n          (attn_dropout): Dropout(p=0, inplace=False)\n          (resid_dropout): Dropout(p=0, inplace=False)\n          (k_proj): Linear(in_features=768, out_features=768, bias=False)\n          (v_proj): Linear(in_features=768, out_features=768, bias=False)\n          (q_proj): Linear(in_features=768, out_features=768, bias=False)\n          (out_proj): Linear(in_features=768, out_features=768, bias=True)\n        )\n      )\n      (ln_2): LayerNorm((768,), eps=1e-05, elementwise_affine=True)\n      (mlp): GPTNeoMLP(\n        (c_fc): Linear(in_features=768, out_features=3072, bias=True)\n        (c_proj): Linear(in_features=3072, out_features=768, bias=True)\n        (dropout): Dropout(p=0, inplace=False)\n      )\n    )\n    (10): GPTNeoBlock(\n      (ln_1): LayerNorm((768,), eps=1e-05, elementwise_affine=True)\n      (attn): GPTNeoAttention(\n        (attention): GPTNeoSelfAttention(\n          (attn_dropout): Dropout(p=0, inplace=False)\n          (resid_dropout): Dropout(p=0, inplace=False)\n          (k_proj): Linear(in_features=768, out_features=768, bias=False)\n          (v_proj): Linear(in_features=768, out_features=768, bias=False)\n          (q_proj): Linear(in_features=768, out_features=768, bias=False)\n          (out_proj): Linear(in_features=768, out_features=768, bias=True)\n        )\n      )\n      (ln_2): LayerNorm((768,), eps=1e-05, elementwise_affine=True)\n      (mlp): GPTNeoMLP(\n        (c_fc): Linear(in_features=768, out_features=3072, bias=True)\n        (c_proj): Linear(in_features=3072, out_features=768, bias=True)\n        (dropout): Dropout(p=0, inplace=False)\n      )\n    )\n    (11): GPTNeoBlock(\n      (ln_1): LayerNorm((768,), eps=1e-05, elementwise_affine=True)\n      (attn): GPTNeoAttention(\n        (attention): GPTNeoLocalSelfAttention(\n          (attn_dropout): Dropout(p=0, inplace=False)\n          (resid_dropout): Dropout(p=0, inplace=False)\n          (k_proj): Linear(in_features=768, out_features=768, bias=False)\n          (v_proj): Linear(in_features=768, out_features=768, bias=False)\n          (q_proj): Linear(in_features=768, out_features=768, bias=False)\n          (out_proj): Linear(in_features=768, out_features=768, bias=True)\n        )\n      )\n      (ln_2): LayerNorm((768,), eps=1e-05, elementwise_affine=True)\n      (mlp): GPTNeoMLP(\n        (c_fc): Linear(in_features=768, out_features=3072, bias=True)\n        (c_proj): Linear(in_features=3072, out_features=768, bias=True)\n        (dropout): Dropout(p=0, inplace=False)\n      )\n    )\n  )\n  (ln_f): LayerNorm((768,), eps=1e-05, elementwise_affine=True)\n)", "parameters": [["wte.weight", [50258, 768]], ["wpe.weight", [2048, 768]], ["h.0.ln_1.weight", [768]], ["h.0.ln_1.bias", [768]], ["h.0.attn.attention.k_proj.weight", [768, 768]], ["h.0.attn.attention.v_proj.weight", [768, 768]], ["h.0.attn.attention.q_proj.weight", [768, 768]], ["h.0.attn.attention.out_proj.weight", [768, 768]], ["h.0.attn.attention.
…
